…
_m.1.num_batches_tracked', 'pix_projector_m.3.weight', 'pix_projector_m.4.weight', 'pix_projector_m.4.bias', 'pix_projector_m.4.running_mean', 'pix_projector_m.4.running_var', 'pix_projector_m.4.num_batches_tracked', 'pix_projector_m.6.weight', 'pix_projector_m.7.running_mean', 'pix_projector_m.7.running_var', 'pix_projector_m.7.num_batches_tracked', 'pix_decoder.0.weight', 'pix_decoder.1.weight', 'pix_decoder.2.weight', 'pix_decoder.2.bias', 'pix_decoder.4.weight', 'pix_decoder.4.bias']
Model = RecModel(
  (encoder): PretrainVisionTransformerEncoder(
    (patch_embed): PatchEmbed(
      (proj): Conv2d(3, 384, kernel_size=(4, 4), stride=(4, 4))
    )
    (blocks): ModuleList(
      (0): Block(
        (norm1): LayerNorm((384,), eps=1e-06, elementwise_affine=True)
        (attn): Attention(
          (qkv): Linear(in_features=384, out_features=1152, bias=False)
          (attn_drop): Dropout(p=0.1, inplace=False)
          (proj): Linear(in_features=384, out_features=384, bias=True)
          (proj_drop): Dropout(p=0.1, inplace=False)
        )
        (drop_path): Identity()
        (norm2): LayerNorm((384,), eps=1e-06, elementwise_affine=True)
        (mlp): Mlp(
          (fc1): Linear(in_features=384, out_features=1536, bias=True)
          (act): GELU()
          (fc2): Linear(in_features=1536, out_features=384, bias=True)
          (drop): Dropout(p=0.1, inplace=False)
        )
      )
      (1): Block(
        (norm1): LayerNorm((384,), eps=1e-06, elementwise_affine=True)
        (attn): Attention(
          (qkv): Linear(in_features=384, out_features=1152, bias=False)
          (attn_drop): Dropout(p=0.1, inplace=False)
          (proj): Linear(in_features=384, out_features=384, bias=True)
          (proj_drop): Dropout(p=0.1, inplace=False)
        )
        (drop_path): DropPath(p=0.00909090880304575)
        (norm2): LayerNorm((384,), eps=1e-06, elementwise_affine=True)
        (mlp): Mlp(
          (fc1): Linear(in_features=384, out_features=1536, bias=True)
          (act): GELU()
          (fc2): Linear(in_features=1536, out_features=384, bias=True)
          (drop): Dropout(p=0.1, inplace=False)
        )
      )
      (2): Block(
        (norm1): LayerNorm((384,), eps=1e-06, elementwise_affine=True)
        (attn): Attention(
          (qkv): Linear(in_features=384, out_features=1152, bias=False)
          (attn_drop): Dropout(p=0.1, inplace=False)
          (proj): Linear(in_features=384, out_features=384, bias=True)
          (proj_drop): Dropout(p=0.1, inplace=False)
        )
        (drop_path): DropPath(p=0.0181818176060915)
        (norm2): LayerNorm((384,), eps=1e-06, elementwise_affine=True)
        (mlp): Mlp(
          (fc1): Linear(in_features=384, out_features=1536, bias=True)
          (act): GELU()
          (fc2): Linear(in_features=1536, out_features=384, bias=True)
          (drop): Dropout(p=0.1, inplace=False)
        )
      )
      (3): Block(
        (norm1): LayerNorm((384,), eps=1e-06, elementwise_affine=True)
        (attn): Attention(
          (qkv): Linear(in_features=384, out_features=1152, bias=False)
          (attn_drop): Dropout(p=0.1, inplace=False)
          (proj): Linear(in_features=384, out_features=384, bias=True)
          (proj_drop): Dropout(p=0.1, inplace=False)
        )
        (drop_path): DropPath(p=0.027272727340459824)
        (norm2): LayerNorm((384,), eps=1e-06, elementwise_affine=True)
        (mlp): Mlp(
          (fc1): Linear(in_features=384, out_features=1536, bias=True)
          (act): GELU()
          (fc2): Linear(in_features=1536, out_features=384, bias=True)
          (drop): Dropout(p=0.1, inplace=False)
        )
      )
      (4): Block(
        (norm1): LayerNorm((384,), eps=1e-06, elementwise_affine=True)
        (attn): Attention(
          (qkv): Linear(in_features=384, out_features=1152, bias=False)
          (attn_drop): Dropout(p=0.1, inplace=False)
          (proj): Linear(in_features=384, out_features=384, bias=True)
          (proj_drop): Dropout(p=0.1, inplace=False)
        )
        (drop_path): DropPath(p=0.036363635212183)
        (norm2): LayerNorm((384,), eps=1e-06, elementwise_affine=True)
        (mlp): Mlp(
          (fc1): Linear(in_features=384, out_features=1536, bias=True)
          (act): GELU()
          (fc2): Linear(in_features=1536, out_features=384, bias=True)
          (drop): Dropout(p=0.1, inplace=False)
        )
      )
      (5): Block(
        (norm1): LayerNorm((384,), eps=1e-06, elementwise_affine=True)
        (attn): Attention(
          (qkv): Linear(in_features=384, out_features=1152, bias=False)
          (attn_drop): Dropout(p=0.1, inplace=False)
          (proj): Linear(in_features=384, out_features=384, bias=True)
          (proj_drop): Dropout(p=0.1, inplace=False)
        )
        (drop_path): DropPath(p=0.045454543083906174)
        (norm2): LayerNorm((384,), eps=1e-06, elementwise_affine=True)
        (mlp): Mlp(
          (fc1): Linear(in_features=384, out_features=1536, bias=True)
          (act): GELU()
          (fc2): Linear(in_features=1536, out_features=384, bias=True)
          (drop): Dropout(p=0.1, inplace=False)
        )
      )
      (6): Block(
        (norm1): LayerNorm((384,), eps=1e-06, elementwise_affine=True)
        (attn): Attention(
          (qkv): Linear(in_features=384, out_features=1152, bias=False)
          (attn_drop): Dropout(p=0.1, inplace=False)
          (proj): Linear(in_features=384, out_features=384, bias=True)
          (proj_drop): Dropout(p=0.1, inplace=False)
        )
        (drop_path): DropPath(p=0.054545458406209946)
        (norm2): LayerNorm((384,), eps=1e-06, elementwise_affine=True)
        (mlp): Mlp(
          (fc1): Linear(in_features=384, out_features=1536, bias=True)
          (act): GELU()
          (fc2): Linear(in_features=1536, out_features=384, bias=True)
          (drop): Dropout(p=0.1, inplace=False)
        )
      )
      (7): Block(
        (norm1): LayerNorm((384,), eps=1e-06, elementwise_affine=True)
        (attn): Attention(
          (qkv): Linear(in_features=384, out_features=1152, bias=False)
          (attn_drop): Dropout(p=0.1, inplace=False)
          (proj): Linear(in_features=384, out_features=384, bias=True)
          (proj_drop): Dropout(p=0.1, inplace=False)
        )
        (drop_path): DropPath(p=0.06363636255264282)
        (norm2): LayerNorm((384,), eps=1e-06, elementwise_affine=True)
        (mlp): Mlp(
          (fc1): Linear(in_features=384, out_features=1536, bias=True)
          (act): GELU()
          (fc2): Linear(in_features=1536, out_features=384, bias=True)
          (drop): Dropout(p=0.1, inplace=False)
        )
      )
      (8): Block(
        (norm1): LayerNorm((384,), eps=1e-06, elementwise_affine=True)
        (attn): Attention(
          (qkv): Linear(in_features=384, out_features=1152, bias=False)
          (attn_drop): Dropout(p=0.1, inplace=False)
          (proj): Linear(in_features=384, out_features=384, bias=True)
          (proj_drop): Dropout(p=0.1, inplace=False)
        )
        (drop_path): DropPath(p=0.0727272778749466)
        (norm2): LayerNorm((384,), eps=1e-06, elementwise_affine=True)
        (mlp): Mlp(
          (fc1): Linear(in_features=384, out_features=1536, bias=True)
          (act): GELU()
          (fc2): Linear(in_features=1536, out_features=384, bias=True)
          (drop): Dropout(p=0.1, inplace=False)
        )
      )
      (9): Block(
        (norm1): LayerNorm((384,), eps=1e-06, elementwise_affine=True)
        (attn): Attention(
          (qkv): Linear(in_features=384, out_features=1152, bias=False)
          (attn_drop): Dropout(p=0.1, inplace=False)
          (proj): Linear(in_features=384, out_features=384, bias=True)
          (proj_drop): Dropout(p=0.1, inplace=False)
        )
        (drop_path): DropPath(p=0.08181818574666977)
        (norm2): LayerNorm((384,), eps=1e-06, elementwise_affine=True)
        (mlp): Mlp(
          (fc1): Linear(in_features=384, out_features=1536, bias=True)
          (act): GELU()
          (fc2): Linear(in_features=1536, out_features=384, bias=True)
          (drop): Dropout(p=0.1, inplace=False)
        )
      )
      (10): Block(
        (norm1): LayerNorm((384,), eps=1e-06, elementwise_affine=True)
        (attn): Attention(
          (qkv): Linear(in_features=384, out_features=1152, bias=False)
          (attn_drop): Dropout(p=0.1, inplace=False)
          (proj): Linear(in_features=384, out_features=384, bias=True)
          (proj_drop): Dropout(p=0.1, inplace=False)
        )
        (drop_path): DropPath(p=0.09090909361839294)
        (norm2): LayerNorm((384,), eps=1e-06, elementwise_affine=True)
        (mlp): Mlp(
          (fc1): Linear(in_features=384, out_features=1536, bias=True)
          (act): GELU()
          (fc2): Linear(in_features=1536, out_features=384, bias=True)
          (drop): Dropout(p=0.1, inplace=False)
        )
      )
      (11): Block(
        (norm1): LayerNorm((384,), eps=1e-06, elementwise_affine=True)
        (attn): Attention(
          (qkv): Linear(in_features=384, out_features=1152, bias=False)
          (attn_drop): Dropout(p=0.1, inplace=False)
          (proj): Linear(in_features=384, out_features=384, bias=True)
          (proj_drop): Dropout(p=0.1, inplace=False)
        )
        (drop_path): DropPath(p=0.10000000149011612)
        (norm2): LayerNorm((384,), eps=1e-06, elementwise_affine=True)
        (mlp): Mlp(
          (fc1): Linear(in_features=384, out_features=1536, bias=True)
          (act): GELU()
          (fc2): Linear(in_features=1536, out_features=384, bias=True)
          (drop): Dropout(p=0.1, inplace=False)
        )
      )
    )
    (norm): LayerNorm((384,), eps=1e-06, elementwise_affine=True)
    (head): Identity()
  )
  (decoder): TFDecoder(
    (trg_word_emb): Embedding(98, 512)
    (position_enc): PositionalEncoding()
    (dropout): Dropout(p=0.1, inplace=False)
    (layer_stack): ModuleList(
      (0): TransformerDecoderLayer(
        (self_attn): MultiHeadAttention(
          (linear_q): Linear(in_features=512, out_features=512, bias=False)
          (linear_k): Linear(in_features=512, out_features=512, bias=False)
          (linear_v): Linear(in_features=512, out_features=512, bias=False)
          (fc): Linear(in_features=512, out_features=512, bias=False)
          (attn_drop): Dropout(p=0.1, inplace=False)
          (proj_drop): Dropout(p=0.1, inplace=False)
        )
        (norm1): LayerNorm((512,), eps=1e-05, elementwise_affine=True)
        (norm2): LayerNorm((512,), eps=1e-05, elementwise_affine=True)
        (norm3): LayerNorm((512,), eps=1e-05, elementwise_affine=True)
        (enc_attn): MultiHeadAttention(
          (linear_q): Linear(in_features=512, out_features=512, bias=False)
          (linear_k): Linear(in_features=512, out_features=512, bias=False)
          (linear_v): Linear(in_features=512, out_features=512, bias=False)
          (fc): Linear(in_features=512, out_features=512, bias=False)
          (attn_drop): Dropout(p=0.1, inplace=False)
          (proj_drop): Dropout(p=0.1, inplace=False)
        )
        (mlp): PositionwiseFeedForward(
          (w_1): Linear(in_features=512, out_features=256, bias=True)
          (w_2): Linear(in_features=256, out_features=512, bias=True)
          (act): GELU()
          (dropout): Dropout(p=0.1, inplace=False)
        )
      )
      (1): TransformerDecoderLayer(
        (self_attn): MultiHeadAttention(
          (linear_q): Linear(in_features=512, out_features=512, bias=False)
          (linear_k): Linear(in_features=512, out_features=512, bias=False)
          (linear_v): Linear(in_features=512, out_features=512, bias=False)
          (fc): Linear(in_features=512, out_features=512, bias=False)
          (attn_drop): Dropout(p=0.1, inplace=False)
          (proj_drop): Dropout(p=0.1, inplace=False)
        )
        (norm1): LayerNorm((512,), eps=1e-05, elementwise_affine=True)
        (norm2): LayerNorm((512,), eps=1e-05, elementwise_affine=True)
        (norm3): LayerNorm((512,), eps=1e-05, elementwise_affine=True)
        (enc_attn): MultiHeadAttention(
          (linear_q): Linear(in_features=512, out_features=512, bias=False)
          (linear_k): Linear(in_features=512, out_features=512, bias=False)
          (linear_v): Linear(in_features=512, out_features=512, bias=False)
          (fc): Linear(in_features=512, out_features=512, bias=False)
          (attn_drop): Dropout(p=0.1, inplace=False)
          (proj_drop): Dropout(p=0.1, inplace=False)
        )
        (mlp): PositionwiseFeedForward(
          (w_1): Linear(in_features=512, out_features=256, bias=True)
          (w_2): Linear(in_features=256, out_features=512, bias=True)
          (act): GELU()
          (dropout): Dropout(p=0.1, inplace=False)
        )
      )
      (2): TransformerDecoderLayer(
        (self_attn): MultiHeadAttention(
          (linear_q): Linear(in_features=512, out_features=512, bias=False)
          (linear_k): Linear(in_features=512, out_features=512, bias=False)
          (linear_v): Linear(in_features=512, out_features=512, bias=False)
          (fc): Linear(in_features=512, out_features=512, bias=False)
          (attn_drop): Dropout(p=0.1, inplace=False)
          (proj_drop): Dropout(p=0.1, inplace=False)
        )
        (norm1): LayerNorm((512,), eps=1e-05, elementwise_affine=True)
        (norm2): LayerNorm((512,), eps=1e-05, elementwise_affine=True)
        (norm3): LayerNorm((512,), eps=1e-05, elementwise_affine=True)
        (enc_attn): MultiHeadAttention(
          (linear_q): Linear(in_features=512, out_features=512, bias=False)
          (linear_k): Linear(in_features=512, out_features=512, bias=False)
          (linear_v): Linear(in_features=512, out_features=512, bias=False)
          (fc): Linear(in_features=512, out_features=512, bias=False)
          (attn_drop): Dropout(p=0.1, inplace=False)
          (proj_drop): Dropout(p=0.1, inplace=False)
        )
        (mlp): PositionwiseFeedForward(
          (w_1): Linear(in_features=512, out_features=256, bias=True)
          (w_2): Linear(in_features=256, out_features=512, bias=True)
          (act): GELU()
          (dropout): Dropout(p=0.1, inplace=False)
        )
      )
      (3): TransformerDecoderLayer(
        (self_attn): MultiHeadAttention(
          (linear_q): Linear(in_features=512, out_features=512, bias=False)
          (linear_k): Linear(in_features=512, out_features=512, bias=False)
          (linear_v): Linear(in_features=512, out_features=512, bias=False)
          (fc): Linear(in_features=512, out_features=512, bias=False)
          (attn_drop): Dropout(p=0.1, inplace=False)
          (proj_drop): Dropout(p=0.1, inplace=False)
        )
        (norm1): LayerNorm((512,), eps=1e-05, elementwise_affine=True)
        (norm2): LayerNorm((512,), eps=1e-05, elementwise_affine=True)
        (norm3): LayerNorm((512,), eps=1e-05, elementwise_affine=True)
        (enc_attn): MultiHeadAttention(
          (linear_q): Linear(in_features=512, out_features=512, bias=False)
          (linear_k): Linear(in_features=512, out_features=512, bias=False)
          (linear_v): Linear(in_features=512, out_features=512, bias=False)
          (fc): Linear(in_features=512, out_features=512, bias=False)
          (attn_drop): Dropout(p=0.1, inplace=False)
          (proj_drop): Dropout(p=0.1, inplace=False)
        )
        (mlp): PositionwiseFeedForward(
          (w_1): Linear(in_features=512, out_features=256, bias=True)
          (w_2): Linear(in_features=256, out_features=512, bias=True)
          (act): GELU()
          (dropout): Dropout(p=0.1, inplace=False)
        )
      )
      (4): TransformerDecoderLayer(
        (self_attn): MultiHeadAttention(
          (linear_q): Linear(in_features=512, out_features=512, bias=False)
          (linear_k): Linear(in_features=512, out_features=512, bias=False)
          (linear_v): Linear(in_features=512, out_features=512, bias=False)
          (fc): Linear(in_features=512, out_features=512, bias=False)
          (attn_drop): Dropout(p=0.1, inplace=False)
          (proj_drop): Dropout(p=0.1, inplace=False)
        )
        (norm1): LayerNorm((512,), eps=1e-05, elementwise_affine=True)
        (norm2): LayerNorm((512,), eps=1e-05, elementwise_affine=True)
        (norm3): LayerNorm((512,), eps=1e-05, elementwise_affine=True)
        (enc_attn): MultiHeadAttention(
          (linear_q): Linear(in_features=512, out_features=512, bias=False)
          (linear_k): Linear(in_features=512, out_features=512, bias=False)
          (linear_v): Linear(in_features=512, out_features=512, bias=False)
          (fc): Linear(in_features=512, out_features=512, bias=False)
          (attn_drop): Dropout(p=0.1, inplace=False)
          (proj_drop): Dropout(p=0.1, inplace=False)
        )
        (mlp): PositionwiseFeedForward(
          (w_1): Linear(in_features=512, out_features=256, bias=True)
          (w_2): Linear(in_features=256, out_features=512, bias=True)
          (act): GELU()
          (dropout): Dropout(p=0.1, inplace=False)
        )
      )
      (5): TransformerDecoderLayer(
        (self_attn): MultiHeadAttention(
          (linear_q): Linear(in_features=512, out_features=512, bias=False)
          (linear_k): Linear(in_features=512, out_features=512, bias=False)
          (linear_v): Linear(in_features=512, out_features=512, bias=False)
          (fc): Linear(in_features=512, out_features=512, bias=False)
          (attn_drop): Dropout(p=0.1, inplace=False)
          (proj_drop): Dropout(p=0.1, inplace=False)
        )
        (norm1): LayerNorm((512,), eps=1e-05, elementwise_affine=True)
        (norm2): LayerNorm((512,), eps=1e-05, elementwise_affine=True)
        (norm3): LayerNorm((512,), eps=1e-05, elementwise_affine=True)
        (enc_attn): MultiHeadAttention(
          (linear_q): Linear(in_features=512, out_features=512, bias=False)
          (linear_k): Linear(in_features=512, out_features=512, bias=False)
          (linear_v): Linear(in_features=512, out_features=512, bias=False)
          (fc): Linear(in_features=512, out_features=512, bias=False)
          (attn_drop): Dropout(p=0.1, inplace=False)
          (proj_drop): Dropout(p=0.1, inplace=False)
        )
        (mlp): PositionwiseFeedForward(
          (w_1): Linear(in_features=512, out_features=256, bias=True)
          (w_2): Linear(in_features=256, out_features=512, bias=True)
          (act): GELU()
          (dropout): Dropout(p=0.1, inplace=False)
        )
      )
    )
    (layer_norm): LayerNorm((512,), eps=1e-06, elementwise_affine=True)
    (classifier): Linear(in_features=512, out_features=97, bias=True)
  )
  (linear_norm): Sequential(
    (0): Linear(in_features=384, out_features=512, bias=True)
    (1): LayerNorm((512,), eps=1e-05, elementwise_affine=True)
  )
  (patch_embed): PatchEmbed(
    (proj): Conv2d(3, 384, kernel_size=(4, 4), stride=(4, 4))
  )
)
number of params: 35786849
LR = 0.00005000
Batch size = 128
Update frequent = 1
Number of training examples = 12062
Number of training training per epoch = 94
Assigned values = [0.023757264018058777, 0.03167635202407837, 0.04223513603210449, 0.056313514709472656, 0.07508468627929688, 0.1001129150390625, 0.13348388671875, 0.177978515625, 0.2373046875, 0.31640625, 0.421875, 0.5625, 0.75, 1.0]
…
